eye_movement_model.tflite (tflite, 2864 bytes, 6 tensors)

arith.constant f4 [3, 8]
00000000: b3f6 a73c 3010 e83e 3c0b fcbe 30df 093e
00000010: 3b52 9bc0 7ad0 86c0 2435 bc3f d6af a1be
00000020: 69b7 13bf 7112 01be 2a36 03bf 31f1 37c0
00000030: b0b9 d53d 0d6f a53e 9b22 4d3f 09cc e8bd
00000040: 1567 3fbf f150 36be c0f6 5b3e a3c6 6540
00000050: ccdc 423f 0ea9 793f 41c8 e4bf 9e07 43bf
0.020503378 0.4532485 -0.4922732 0.13464046 -4.853788 -4.212949 1.4703717 -0.31579465
-0.57701737 -0.12604691 -0.5125452 -2.8740962 0.10435808 0.32311288 0.8013093 -0.113670416
-0.74766666 -0.17804314 0.21480846 3.5902488 0.7611816 0.9752358 -1.7873613 -0.761835

arith.constant1 f4 [8, 16]
00000000: 2959 463e cab6 61be 5899 c63e 6591 00bf
00000010: e0eb a8be b4ca 02bd 480d a7be 1340 873e
00000020: e864 423e a250 abbd 486d c23e 04b8 f53e
00000030: ec91 b53e 02ef e2be 5027 88be 106f 443e
00000040: 8591 a6be 4845 b43c 5cfc a4be f938 03be
00000050: 90e8 123e 13ee 4a3d 5c6f 8dbe d132 8cbe
00000060: 68e2 073e 719e b4bd 0c68 ea3e a8c0 2cbe
00000070: 73bd d83e 8e1d 1bbe 00a4 2abc 6d40 563e
00000080: e816 dfbe 50d2 a0be 80a2 e33c 688b dbbe
00000090: 80ea be3d 70c1 3a3e e0eb aebe a04e c9be
000000a0: 1873 0cbe 38a0 3dbe 68f8 3d3e 807d 24bd
000000b0: 6006 dfbe 8019 353d 58e8 d8be b855 5bbe
000000c0: 088e f5be 73f6 03bf 982e 553e ae96 4abf
000000d0: d82d d53e 358b 813e 90ec d63e ab93 7840
000000e0: f8d0 88be b319 883f b43b 8a3e 88ee 73be
000000f0: f0f8 d03e b02c 3a3f 0c77 9bbe b4ad 9d3e
00000100: 0972 063f b902 3bbe 40a6 ec3d fa06 85be
00000110: 1ce0 95be c516 0e40 d839 7b3e bcce 2f40
00000120: d08f acbe 5df3 1c40 401e 5dbd f81b 87be
00000130: e788 0340 dcef 3f40 28cc 19be acfc 823f
00000140: dd82 643f f721 0fbf d08d 833d 035e 4ebe
00000150: 9c42 e2be 8c29 1540 9004 e13e dd98 3e40
00000160: 987a 59be 6a98 2240 d05c 1f3e dc4b a93e
00000170: 698a d83f 876b 0a40 90e0 fdbe 6aa8 973f
00000180: 3991 863f 022f fc3f 2486 e43e 7064 e53f
00000190: c06d 61bd 8042 89be b050 a43e 1cda 89c0
000001a0: c041 95bc d3db fdbe 687d 6e3e c05d b03c
000001b0: 1c1b 0c3e e233 29bf d0bd de3d 1e8f 3e3f
000001c0: 5f1a 0ebe bbeb 403e 1c6f be3e 81e3 56be
000001d0: a8c7 febe 1e40 cebe e036 303e 807d bdbc
000001e0: 6c8a dd3e 1627 a13e e86f a03e e85f 803e
000001f0: 0e05 59be b580 e33b 2892 e13e 817d 833e
0.1936995 -0.22042385 0.38788867 -0.50221854 -0.32992458 -0.031931594 -0.3262732 0.26416072
0.18983805 -0.08364989 0.37974 0.47991955 0.35462892 -0.44322973 -0.26592493 0.19182992
-0.32532898 0.022005692 -0.32223785 -0.12814702 0.14346528 0.04954345 -0.27624023 -0.2738252
0.13269961 -0.08819283 0.45782506 -0.16870368 0.42332038 -0.15147993 -0.010415077 0.20923014
-0.43572164 -0.31410456 0.027787447 -0.42879796 0.09322071 0.18237853 -0.34164333 -0.393178
-0.1371578 -0.1851815 0.1855179 -0.04015875 -0.4355955 0.04421377 -0.42364764 -0.21419418
-0.47959924 -0.51547927 0.20818555 -0.7913617 0.41636539 0.2530152 0.41977358 3.884013
-0.2672193 1.0632843 0.26998675 -0.23821461 0.40814924 0.7272444 -0.30364263 0.30796587
0.52517754 -0.18262757 0.11555147 -0.25981885 -0.29272544 2.2201397 0.24533784 2.746993
-0.3370347 2.4523537 -0.053983927 -0.26388526 2.0552309 2.9990149 -0.15019286 1.0233359
0.8926218 -0.559112 0.06423533 -0.2015305 -0.44191444 2.3306608 0.43948793 2.97808
-0.21238172 2.5405526 0.15562749 0.3306569 1.691724 2.162813 -0.4958539 1.1848271
1.0513068 1.9701846 0.4463359 1.7921276 -0.055036306 -0.26808548 0.3209281 -4.3078747
-0.018219829 -0.49581775 0.23290026 0.021529078 0.13682216 -0.6609479 0.108760476 0.7443713
-0.13877247 0.18839924 0.37194145 -0.20985223 -0.497617 -0.40283293 0.17208433 -0.023131132
0.4326967 0.31475133 0.31335378 0.2507317 -0.21193334 0.0069428333 0.4405682 0.2568169

arith.constant2 f4 [3]
00000000: 3bf5 8f3f da15 c33e 8147 93bf
1.1246713 0.3810261 -1.1506196

sequential_1/dense_1_2/Add/ReadVariableOp f4 [8]
00000000: 0e4e b3bc 7ca3 2ebd 0000 0000 ca4a 42bf
00000010: f27c f5be 9869 9cbe 052e da3f 40fb adbd
-0.021887805 -0.04263638 0.0 -0.7589537 -0.47946888 -0.30549312 1.7045294 -0.08495188

sequential_1/dense_1/Add/ReadVariableOp f4 [16]
00000000: 387e 593f 5535 e63f 0000 0000 d13d ca3f
00000010: 0000 0000 174f 8ebe 0000 0000 f432 87bf
00000020: 0000 0000 aa2e 87be 0000 0000 0000 0000
00000030: f898 18be 9711 b0be 0000 0000 12dd 893e
0.8495822 1.7985026 0.0 1.5800115 0.0 -0.27794716 0.0 -1.0562425
0.0 -0.2640279 0.0 0.0 -0.14902103 -0.3438842 0.0 0.26926476

sequential_1/dense_1/MatMul f4 [16, 1]
00000000: 05be 3b3f 0e18 fabd d048 edbe ac6d 2ebe
00000010: 10f5 33bd 1e6a 0140 96b1 11be 3eea b13f
00000020: 4393 d2be 190c da3f 80c5 3bbd e04d 57bd
00000030: 6039 df3f f7aa 1440 9a52 0dbf 8789 ca3f
0.7333682 -0.12211619 -0.46344614 -0.17034024 -0.04393488 2.0221019 -0.142279 1.389961
-0.41127977 1.7034942 -0.045842648 -0.0525645 1.7439384 2.3229349 -0.55204165 1.582322
